5f8dfe11-23360-5009.pt (torch, 140861 bytes, 3 tensors)

weight f4 [128, 256]
0	0xbba37ae8	-0.004989017
1	0xbc2d2df5	-0.010570039
2	0xbc0a473c	-0.008439835
3	0x3c84b0ab	0.016197523
4	0x3ab2999b	0.00136261
5	0xba4642ee	-0.0007563074
6	0x3c95d526	0.018290114
7	0x3b425042	0.0029649888
8	0xbd3747e3	-0.04474629
9	0x3c16c96d	0.009203297
10	0x3d897b04	0.067129165
11	0x3ca80b1e	0.020513114
12	0xbc10e71d	-0.008844164
13	0xbce25588	-0.027628675
14	0xbbb44104	-0.0055009145
15	0xbb53b1dd	-0.003230206
16	0x3c12c90b	0.008959065
17	0xbc573e77	-0.013137451
18	0xbb5d8696	-0.0033802143
19	0x3b61516c	0.0034380807
20	0x3c52f180	0.012874961
21	0x3aba2846	0.0014202676
22	0xbd3cc835	-0.04608937
23	0x3c1a2a2b	0.009409468
24	0x3cd4c885	0.025974521
25	0x3ce7666d	0.028247083
26	0x3bc61aed	0.0060456903
27	0xbbddf1b2	-0.006773197
28	0xbce074a9	-0.027399378
29	0x3a4798f0	0.0007614037
30	0x3d8a913e	0.06765984
31	0x3c4e5ac5	0.012594883
32	0x3c850377	0.016237004
33	0x3c58978c	0.013219725
34	0x3ce4c983	0.02792812
35	0xbcf80450	-0.030275494
36	0x3d3e704d	0.046493817
37	0x3d0fbf3e	0.035094492
38	0xbc37b673	-0.011212933
39	0x3c049653	0.008092481
40	0x3c596a2f	0.013269945
41	0xbcec65e0	-0.028857172
42	0xbcc2a080	-0.023758173
43	0xbc953b98	-0.018216893
44	0xbcb182a1	-0.021668734
45	0xbd65b665	-0.056082148
46	0x3c2dc8fd	0.010607001
47	0x3a651d80	0.00087400526
48	0x3ca3f994	0.020016469
49	0x3ca238db	0.019802501
50	0xbb9942f6	-0.004677172
51	0x3b1dd05a	0.0024080486
52	0xbae69f91	-0.0017595162
53	0x3bd1f3a0	0.006407216
54	0x3d9c4c77	0.07631772
55	0x3b869b07	0.004107836
56	0xbd135c78	-0.035976857
57	0x3c8e438a	0.01736619
58	0xbb90e121	-0.0044213687
59	0xbd5ced29	-0.05393711
60	0xbbce3411	-0.006292828
61	0xbd1ded99	-0.03855667
62	0x3cc8317b	0.024437657
63	0xbda3adea	-0.07992156
64	0x3bd27220	0.006422296
65	0x3c960853	0.018314516
66	0xbbc40c7a	-0.0059829326
67	0x3c720d77	0.014773718
68	0xbcf45ea5	-0.029830286
69	0x3c88bde3	0.016692108
70	0xbb3e4243	-0.0029031194
71	0xbc118ff2	-0.008884417
72	0x3b47b2f1	0.0030471648
73	0xbd2c61cd	-0.042085458
74	0xbd0152d3	-0.031573128
75	0x3bd5f7cb	0.0065297834
76	0xbc879efc	-0.016555302
77	0x3aa606eb	0.0012666857
78	0x3bf69076	0.0075245453
79	0xbcb91ff9	-0.022598254
80	0xbc0299b2	-0.007971214
81	0xbca3a9db	-0.019978454
82	0x3c3b9efc	0.011451479
83	0x3da08ac4	0.078389674
84	0x3ac4c593	0.0015012495
85	0xbd046eb7	-0.03233215
86	0xbc4816bf	-0.012212454
87	0x3c4a8981	0.012361885
88	0xbb83e389	-0.004024927
89	0x3d960f98	0.07327193
90	0xbc8ed979	-0.017437683
91	0xbc84a5d0	-0.016192347
92	0xbd0547b1	-0.032539073
93	0x3c30d766	0.0107935425
94	0xbc94d63e	-0.018168565
95	0xbd3cce47	-0.04609516
96	0x3c6780ac	0.014129799
97	0xbc8e5eaa	-0.017379124
98	0xbc687198	-0.014187239
99	0xbb4a6320	-0.0030881837
100	0xbc6c4aa4	-0.014422093
101	0xbcfad44c	-0.03061881
102	0xbb906628	-0.004406709
103	0x3a726d3a	0.00092478434
104	0xbc94ccf2	-0.018164132
105	0xbd067649	-0.03282765
106	0x3bc17a9a	0.005904508
107	0x3b5697d0	0.0032744296
108	0x3cbd3860	0.02309817
109	0xbc8f84ec	-0.017519437
110	0xbc5bac28	-0.0134077445
111	0xbc52561b	-0.012837912
112	0xbc8ac08f	-0.016937522
113	0x3ca01ac9	0.019544022
114	0xbd60e7a8	-0.054908425
115	0xbdc26813	-0.09492507
116	0x3cec2e6e	0.028830733
117	0x3d802ae1	0.062581785
118	0x3bd40d01	0.0064712767
119	0xbd4f0815	-0.050544817
120	0xbc237324	-0.009976182
121	0xbbe16be8	-0.0068793185
122	0xbd428757	-0.04749235
123	0xbb0cc83c	-0.0021481654
124	0x3b683881	0.003543407
125	0xbda67c3a	-0.08129163
126	0x3b4e91fc	0.003152012
127	0xbd28e8af	-0.04123753
128	0x3cd2f1d7	0.025750084
129	0x3cda7688	0.026667848
130	0x3aae04fe	0.0013276634
131	0x3d10eb98	0.03538093
132	0xbd15270e	-0.0364142
133	0x3d8b462c	0.068004936
134	0x3d617412	0.055042334
135	0x3d15ff6d	0.036620546
136	0x3d2c45c8	0.042058736
137	0x3c0088ec	0.007845145
138	0xbd014eb1	-0.031569187
139	0xbce8efc6	-0.028434645
140	0x3c533951	0.012892083
141	0xbb803f0b	-0.0039137653
142	0xbd9a4efa	-0.07534595
143	0xbbe32b0a	-0.006932621
144	0x3c8818d6	0.016613405
145	0xbc6501a0	-0.013977438
146	0x3a71bd36	0.0009221615
147	0xbabb4207	-0.0014286645
148	0xbd9d653f	-0.07685327
149	0x3ca0e6c3	0.019641286
150	0x3c4df587	0.012570745
151	0x3d1bd827	0.038047936
152	0xbce36d83	-0.02776218
153	0xbc95f34a	-0.018304486
154	0x3c59e842	0.0133000035
155	0x3a21bd52	0.00061698735
156	0xbc5f3a0b	-0.013624678
157	0xbbc8ad95	-0.006124208
158	0xbd161f65	-0.036651034
159	0xbd489a0e	-0.048975043
160	0x3c35d5a5	0.0110983
161	0xbd0cacf1	-0.034344617
162	0x3c9f185a	0.019420791
163	0xbc9bdd71	-0.01902649
164	0xbca8c544	-0.020601876
165	0xbafc5f15	-0.0019254411
166	0x3b45d0db	0.0030184302
167	0xbc395a0c	-0.011312973
168	0xbc1cdbf2	-0.009573923
169	0x3b47ce50	0.0030487962
170	0x3be73465	0.0070558065
171	0x3b1b6e40	0.0023716837
172	0x3bf84cda	0.007577521
173	0x3c9676e0	0.01836723
174	0xbc6713ec	-0.014103871
175	0x3dc14126	0.09436254
176	0x3cfa881c	0.03058248
177	0xbb896ab4	-0.004193628
178	0xbc25c29a	-0.010117197
179	0xbd88fd84	-0.06688979
180	0xbc876cb8	-0.016531333
181	0xbbd21b94	-0.006411979
182	0xbd2603ac	-0.040530846
183	0xbaad5cab	-0.001322647
184	0xbc5ea953	-0.013590175
185	0x3d102a63	0.035196673
186	0xbbb54241	-0.0055315797
187	0x3d1e76d4	0.038687542
188	0x3d39e7d0	0.04538709
189	0x39754dda	0.00023394023
190	0x3c4a8133	0.012359905
191	0xbb4a8e57	-0.0030907595
192	0xbcb060a8	-0.021530464
193	0x3a00ba29	0.00049105525
194	0xbcc1da1c	-0.023663573
195	0xb9df06d3	-0.0004253896
196	0xbd70e431	-0.05881137
197	0xbcb208aa	-0.021732647
198	0x3b0db155	0.002162059
199	0x3cc855d1	0.024454983
200	0x3d440cd7	0.047863808
201	0x3babac98	0.0052390806
202	0xbd322e91	-0.04350144
203	0xbc1c8ef4	-0.009555567
204	0xba650f10	-0.0008737901
205	0x3c015fed	0.007896406
206	0x3bb50a7f	0.005524933
207	0x3b3a33bd	0.0028412186
208	0xbd968298	-0.073491275
209	0x3e12f226	0.14350185
210	0x383bc352	4.476618e-05
211	0xbc038c4f	-0.008029058
212	0xbbd746c1	-0.006569714
213	0x3b90ec61	0.00442271
214	0x3db150cc	0.08657989
215	0xbc7fa904	-0.015604261
216	0x3cbbcb6d	0.02292415
217	0xbd8b52a8	-0.06802875
218	0x3bde2281	0.0067790155
219	0xbc835e38	-0.016036138
220	0x3c59bcaf	0.013289615
221	0x3c6f9ed5	0.014625271
222	0xbc6cfa39	-0.014463955
223	0xbc06a8f4	-0.0082189925
224	0x3d03010c	0.03198342
225	0xbcbf0ede	-0.023322519
226	0x3d2b89b7	0.041879382
227	0x39ffd066	0.0004879266
228	0x3dbe7972	0.093005076
229	0xbc911786	-0.017711412
230	0x3c8c6901	0.017139914
231	0xbcbd2722	-0.023089949
232	0xbb306375	-0.002691475
233	0xbb76c677	-0.0037654915
234	0x3b2ff50c	0.002684894
235	0xbb983421	-0.004644886
236	0x3c6555bd	0.013997492
237	0x3c130c97	0.00897517
238	0x3c8ec267	0.017426683
239	0xbc988210	-0.018616706
240	0x3c994680	0.018710375
241	0x3c819e23	0.015822476
242	0x3d4b59c5	0.049646158
243	0xbd581c0e	-0.05276113
244	0xbb6b90fa	-0.0035944567
245	0xbcf1f680	-0.029536486
246	0x3c8f327f	0.017480133
247	0xbcb1f06c	-0.021721087
248	0x3cb09888	0.021557108
249	0xbaca9404	-0.0015455489
250	0x3b4cbd03	0.003124059
251	0x3df09653	0.11747422
252	0xbaa04885	-0.0012228644
253	0xbd669bd5	-0.056300957
254	0x3d02734c	0.031848237
255	0x3c528ceb	0.01285098

bias f4 [128]
0	0xbbe8c15b	-0.007103128
1	0xbbcc64f1	-0.006237619
2	0xbc72b402	-0.014813425
3	0x3ce6af7d	0.028159851
4	0x3c0916c9	0.008367249
5	0xbce27e25	-0.027648041
6	0x3bf291b6	0.007402624
7	0xbaa832d1	-0.0012832527
8	0x3c0ee213	0.0087208925
9	0x3bb006d7	0.005371909
10	0x3a837f90	0.0010032523
11	0x3cc8c48c	0.024507783
12	0x3cc9de86	0.02464224
13	0xbb931f91	-0.004489847
14	0x3c530b1b	0.012881066
15	0x3cca4cde	0.024694856
16	0x3d0919ff	0.033472057
17	0x3bdf9dbc	0.0068242233
18	0x3be66d72	0.00703209
19	0x3cdf23b7	0.02723871
20	0xbc9af9d2	-0.018917952
21	0x3cf275fe	0.029597279
22	0x3cdd3f21	0.027007641
23	0xbc8ba2e6	-0.01704545
24	0x3a34e52a	0.0006900603
25	0xbc317d4b	-0.010833095
26	0x3c3090c6	0.010776704
27	0x3cc5fe62	0.02416915
28	0x3c5ccccf	0.013476565
29	0x3c247ae5	0.010039066
30	0x3ce8491d	0.028355176
31	0x3ca9e5a7	0.02073939
32	0xbc82428f	-0.015900878
33	0x3c4bdfe3	0.0124435155
34	0x3c61e573	0.013787615
35	0x3cc16f92	0.023612771
36	0x3c46e66a	0.012139896
37	0x3ca915fc	0.020640366
38	0x3d0ea488	0.034824878
39	0x3c525fbf	0.01284021
40	0x3c77ceb2	0.015124964
41	0xbc17c394	-0.009262938
42	0xbca69944	-0.020336755
43	0x3c2184d5	0.00985833
44	0x3c8feace	0.017568018
45	0x3c2944d6	0.010331353
46	0x3c43d33b	0.011952217
47	0x3ca8c43f	0.02060139
48	0xbc64ea08	-0.013971813
49	0x3cc940c0	0.024567008
50	0xbb8ced5d	-0.004300757
51	0x3c9077ba	0.017635215
52	0x3c184918	0.009294771
53	0xba92548c	-0.0011164113
54	0xbc49b216	-0.012310525
55	0x3ad77774	0.0016438798
56	0x3cc6ba88	0.024258867
57	0xbcc48b86	-0.023992311
58	0xbb5a2f47	-0.003329234
59	0xbc7d2f87	-0.015453226
60	0x3cd3fd2f	0.025877563
61	0x3c813ae9	0.01577516
62	0xbc766319	-0.015038275
63	0x3c28ab97	0.010294816
64	0x3b28ce96	0.00257579
65	0x3cbd5f41	0.02311671
66	0x3c0b1e4f	0.008491113
67	0x3b8a6cb5	0.0042243847
68	0x3c1fa5b5	0.0097440975
69	0x3c4c9e9d	0.012488988
70	0x3ce6336b	0.02810069
71	0xbb9bdd30	-0.004756592
72	0xbcb92745	-0.022601733
73	0x3c4cd63b	0.012502248
74	0x3c0dc4fa	0.00865292
75	0xbcba792d	-0.02276286
76	0x3c94ee7a	0.01818012
77	0x3c4e3aff	0.012587308
78	0x3c362f1f	0.011119633
79	0xbc20821c	-0.0097966455
80	0x3c2b5ee4	0.010459635
81	0x3cc13e19	0.02358918
82	0x3cdbd83a	0.026836503
83	0x3cca7a49	0.024716513
84	0xbce9ca50	-0.028538853
85	0x3cce447a	0.025179137
86	0x3c1d283f	0.009592115
87	0x3c7321bf	0.014839589
88	0xbc083655	-0.008313735
89	0x3bc448d0	0.0059901252
90	0xbc5fec68	-0.0136672035
91	0xbc139e67	-0.009009934
92	0xbc26b4bc	-0.010174926
93	0x3c5c5422	0.013447793
94	0x3cadbf25	0.021209309
95	0xbc013c7b	-0.007887955
96	0xbc9680b7	-0.018371923
97	0x3d19c488	0.037540942
98	0x3c7662ba	0.015038187
99	0xbc95aa18	-0.018269584
100	0xbcb5dd8b	-0.022200366
101	0xbcd4fe1f	-0.02600008
102	0x3c5ba57d	0.013406155
103	0xbbbfe6df	-0.0058563794
104	0x3c9cc4f4	0.019136883
105	0xbc39d2fc	-0.0113418065
106	0x3be76790	0.007061906
107	0x3bead61e	0.007166638
108	0x3d140339	0.036135886
109	0xbc040ea4	-0.008060131
110	0x3bae3b2c	0.0053171124
111	0xbcc97894	-0.024593629
112	0x3d04946f	0.03236812
113	0x3c1a98a6	0.009435808
114	0xbb96518a	-0.004587357
115	0xbb49ae0a	-0.0030773901
116	0xbcc5f08e	-0.024162557
117	0xbb630b69	-0.0034644252
118	0xbd01835e	-0.031619422
119	0x39e999ea	0.00044555898
120	0x3c496d03	0.012294057
121	0x3bd677e7	0.006545055
122	0xbcaa198c	-0.020764135
123	0xbb6b2f1c	-0.0035886234
124	0xbbc84401	-0.0061116223
125	0xbbbb8414	-0.005722532
126	0x3cd7c0c3	0.026337033
127	0xbb52a41d	-0.0032141276

weight f4 [1, 128]
0	0xbe01f953	-0.12692766
1	0xbeb9089c	-0.3613938
2	0xbf1b261a	-0.60605013
3	0x3ed92ee9	0.42418602
4	0xbed5a01d	-0.4172372
5	0x3f793376	0.9734415
6	0x3e9661e2	0.29371554
7	0xbf1a8ffe	-0.60375965
8	0xbefc2ab5	-0.49251333
9	0xbf174809	-0.5909429
10	0x3f039f4c	0.5141494
11	0x3f02ef1b	0.51146096
12	0x3ec13276	0.3773381
13	0x3f314dd7	0.692594
14	0xbef8b20c	-0.4857334
15	0x3ec9ec04	0.39437878
16	0x3e9609b1	0.2930427
17	0x3f2194dc	0.63117766
18	0xbee4d35b	-0.446925
19	0x3ef1ce95	0.47227922
20	0xbf1b686b	-0.60706204
21	0x3f46a838	0.7760043
22	0x3f0783d7	0.52935547
23	0x3ebeaad7	0.37239715
24	0xbf4ed876	-0.80799043
25	0xbec2a109	-0.38013485
26	0x3f3d9235	0.7405122
27	0xbf3795fc	-0.71713233
28	0x3ec90fb8	0.39269805
29	0x3f09ca03	0.5382387
30	0x3ed18cf7	0.4092786
31	0x3f37aafc	0.71745276
32	0xbf327848	-0.69714785
33	0xbf07ae59	-0.5300041
34	0xbed3a96b	-0.41340193
35	0x3ec5dd76	0.38645524
36	0x3ee65be0	0.4499197
37	0x3eee02fd	0.46486655
38	0x3ed81574	0.42203867
39	0xbeea186f	-0.45721766
40	0xbf063887	-0.52430004
41	0xbeeecb2e	-0.4663939
42	0xbf03be30	-0.5146208
43	0xbef4be33	-0.4780136
44	0xbed38776	-0.41314286
45	0xbee2f227	-0.44325373
46	0x3f25585d	0.64587957
47	0x3edd2c96	0.4319808
48	0xbf3848d5	-0.7198613
49	0xbf1da482	-0.61579144
50	0xbf40a53b	-0.7525212
51	0x3f484cc8	0.7824216
52	0xbebb4377	-0.3657491
53	0xbf48a6ba	-0.78379405
54	0xbf1fb8a8	-0.6239114
55	0x3e9dc8f3	0.30817375
56	0x3ebe57eb	0.3717645
57	0xbf1de05a	-0.6167046
58	0x3f356c8e	0.70868766
59	0x3f54b9b9	0.8309589
60	0x3efc76a7	0.49309275
61	0x3ee726dc	0.45146835
62	0xbe296e40	-0.16545963
63	0xbf42b074	-0.76050496
64	0x3f2c6585	0.67342407
65	0x3efea89b	0.4973801
66	0xbf07f3e3	-0.53106517
67	0x3f3d794a	0.740132
68	0xbf81fba7	-1.0154923
69	0x3f186714	0.59532285
70	0x3f018ecb	0.5060851
71	0xbdbf6997	-0.093463115
72	0xbf46c41b	-0.77642983
73	0xbead7648	-0.33879304
74	0xbf5ca3f9	-0.861877
75	0xbf4a61c7	-0.79055446
76	0x3f191284	0.5979388
77	0xbedcd698	-0.43132472
78	0xbedc08fd	-0.42975608
79	0xbea276c2	-0.3173123
80	0xbef721c8	-0.4826796
81	0x3ec269cb	0.3797134
82	0x3edfac0b	0.43685946
83	0x3efff1f8	0.49989295
84	0xbf851870	-1.0398083
85	0x3ef6e213	0.48219356
86	0xbed5fe0c	-0.41795385
87	0xbebd24cb	-0.36942133
88	0xbef06cd9	-0.46958044
89	0xbec76915	-0.3894736
90	0x3f1f1f99	0.6215759
91	0x3f5f6807	0.8726811
92	0xbf22fd3d	-0.6366766
93	0xbeb57f8d	-0.35448876
94	0x3eb2ce5e	0.3492307
95	0x3f50a881	0.81507117
96	0xbf27ad69	-0.6549898
97	0x3ece5a45	0.40303245
98	0xbf21ef20	-0.632555
99	0xbf04e7e1	-0.5191632
100	0xbf801aa8	-1.0008135
101	0x3f50870c	0.81456065
102	0x3f4cf4ef	0.8006124
103	0x3d59e9eb	0.053201597
104	0xbf49dd0f	-0.78852934
105	0xbf000013	-0.50000113
106	0xbef8f809	-0.48626736
107	0xbebce4ad	-0.36893216
108	0x3f02e220	0.5112629
109	0x3dd80fa7	0.105498604
110	0xbeede179	-0.46461084
111	0xbf0f52c8	-0.5598569
112	0x3f31b7aa	0.69420874
113	0xbf0b7b46	-0.54484975
114	0xbf1cd32f	-0.6125974
115	0x3d811ef4	0.06304732
116	0x3f6d98c1	0.9281121
117	0xbed9ea37	-0.42561504
118	0x3f846028	1.0341845
119	0x3f442062	0.7661191
120	0xbeb10f07	-0.34581777
121	0xbef1fefa	-0.47264844
122	0x3f8a45c7	1.0802544
123	0xbf0793b7	-0.5295977
124	0xbec88fc0	-0.39172173
125	0xbf2e534d	-0.68095857
126	0x3ec81d63	0.3908492
127	0x3efacfc7	0.48986647
