my_module.pt (torch, 140469 bytes, 3 tensors)

weight f4 [128, 256]
0	0x3d29323d	0.041307677
1	0x3d073942	0.03301359
2	0xbcfd83c4	-0.03094662
3	0x3dbe64fa	0.092966035
4	0xbbac0572	-0.0052496726
5	0x3c9443c6	0.018098723
6	0x3dc2bc15	0.0950853
7	0x3db44946	0.08803038
8	0x3d8692ce	0.065709695
9	0x3d17a17e	0.037019245
10	0xbe8d129c	-0.2755326
11	0x3d6b3365	0.05742206
12	0x3d81d704	0.06339839
13	0x3d9452b4	0.07242337
14	0x3d2e2428	0.04251495
15	0x3cbcd086	0.02304865
16	0x3cfae96e	0.030628886
17	0x3d819e80	0.063290596
18	0x3c482e6c	0.012218099
19	0x3bea43f5	0.0071492144
20	0x3d8c178f	0.06840431
21	0x3d860e05	0.06545643
22	0x3dd665c7	0.10468631
23	0x3dc02a48	0.093830645
24	0x3c467fc6	0.0121154245
25	0xbcd60820	-0.026126921
26	0x3d8a0ad7	0.06740349
27	0x3d442e89	0.047895942
28	0x3c299b98	0.010352038
29	0x3dbbe864	0.09175184
30	0xb86e1012	-5.675859e-05
31	0xbd99c52f	-0.07508313
32	0x3d2a6d1b	0.041607957
33	0x3d3401bd	0.04394697
34	0x3d36e6b5	0.044653613
35	0xbd6aaf49	-0.05729607
36	0xbc73d35a	-0.014881933
37	0x3d10faca	0.03539542
38	0x3d24fb3a	0.04027865
39	0x3ccbcd15	0.024878064
40	0x3d8eb57f	0.069682114
41	0x3c857713	0.01629213
42	0x3d9d30af	0.07675301
43	0x3d5255ec	0.051351473
44	0x3b8939cf	0.0041877995
45	0x3d312d1d	0.043255914
46	0x3d689853	0.056785893
47	0xbe93efc8	-0.28893876
48	0x3d09830e	0.03357225
49	0x3d7a302a	0.06108109
50	0x3daffa94	0.08592716
51	0x3d798b33	0.060923766
52	0x3cb81d49	0.022474902
53	0x3d12a54a	0.035802163
54	0x3da170d4	0.078828484
55	0x3d3ee21a	0.046602346
56	0x3da88823	0.08229091
57	0x3d902d8a	0.07039936
58	0x3db3e319	0.0878355
59	0x3ce5df04	0.028060444
60	0x3db7a30a	0.08966644
61	0x3d1393af	0.036029514
62	0x3d4522ca	0.04812888
63	0x3d691502	0.0569048
64	0x3cd768e5	0.026295135
65	0x3cc1ca2d	0.023655975
66	0x3b07c8b4	0.0020718994
67	0x3db2456e	0.08704649
68	0x3b7e61c7	0.0038815604
69	0xbc6bc4f6	-0.014390221
70	0x3d9ab9ce	0.07554971
71	0x3d498bab	0.049205463
72	0xbd6701dd	-0.05639826
73	0x3d5a4236	0.0532858
74	0xbba2fd95	-0.004974077
75	0x3d9eb62d	0.07749591
76	0x3d488cfa	0.04896257
77	0x3d97f865	0.07420424
78	0x3d702d6a	0.05863706
79	0x3ddad7bc	0.10685679
80	0x3df1ec9d	0.118127085
81	0x3de411b4	0.11136189
82	0x3c91deef	0.017806498
83	0x3db8841e	0.09009574
84	0x3df35838	0.11882061
85	0xbc782095	-0.015144487
86	0x3c8d6c7c	0.017263643
87	0x3da58fd5	0.080840744
88	0x3c8d495a	0.01724689
89	0xbe437270	-0.19086623
90	0x3d2325c9	0.039830957
91	0x3cedc005	0.029022226
92	0xbda056b6	-0.07829039
93	0x3da2e49a	0.079537585
94	0x3da5b230	0.08090627
95	0x3ce06002	0.02738953
96	0x3ce493b8	0.027902469
97	0x3a25a970	0.00063194986
98	0x3ca1c6d4	0.019748129
99	0xbd3b6f4a	-0.04576043
100	0x3d3340b5	0.04376288
101	0x3d6a19a3	0.057153355
102	0x3cc7e8a0	0.024402916
103	0x3d5877c3	0.05284859
104	0xbd643b57	-0.055720653
105	0x3cf1dad7	0.029523296
106	0xbb746df9	-0.0037296994
107	0xbda2b3a4	-0.0794442
108	0xbbebc1ca	-0.0071947323
109	0x3cbf4e86	0.023352873
110	0x3d6c8667	0.057745364
111	0x3d8cfb8f	0.068839185
112	0x3e010a03	0.12601475
113	0x3d206c50	0.039165795
114	0x3d018ded	0.03162949
115	0x3d0d3d07	0.03448203
116	0x3d54f81f	0.05199444
117	0x3c1de3dd	0.009636846
118	0x3dcb2a74	0.09920207
119	0xbdeff577	-0.117167406
120	0x3c4f2f71	0.012645588
121	0x3cc2b983	0.0237701
122	0x3bb4f1b3	0.005521977
123	0x3dac4911	0.08412374
124	0xbc17701e	-0.009243039
125	0x3d3f5040	0.04670739
126	0x3d041583	0.032247078
127	0xbc0434e6	-0.008069253
128	0x3dbae90c	0.091264814
129	0x3cb17fde	0.021667417
130	0x3d768568	0.06018582
131	0x3d56aa88	0.052408725
132	0x3c8dc38d	0.01730516
133	0x3d55262d	0.05203836
134	0xbbd253e6	-0.006418693
135	0x3dc7e7c1	0.097610004
136	0x3ca8d94c	0.020611428
137	0x3c1e42b1	0.009659455
138	0x3d1f991b	0.038964372
139	0xbdff076b	-0.12452587
140	0x3d9505b9	0.07276482
141	0x3d278fe7	0.04090872
142	0x3db47555	0.08811442
143	0x3d3a280c	0.045448348
144	0x3dc1a19d	0.094546534
145	0x3d7b9afe	0.06142711
146	0xbc778891	-0.015108244
147	0x3d8a4d50	0.067530274
148	0x3cceb9b3	0.025235033
149	0x3df8a08a	0.121399954
150	0x3de1a9e9	0.11018736
151	0x3d8e52f3	0.06949415
152	0x3d7574e1	0.059925918
153	0x3d80bb65	0.06285743
154	0xbe6486e5	-0.22317083
155	0x3cca99a3	0.024731463
156	0x3cd35993	0.025799548
157	0x3e2e4dd8	0.17021883
158	0x3d8907e0	0.06690955
159	0x3ddda4b1	0.10822428
160	0x3d07d4eb	0.03316204
161	0xbe114efa	-0.14190283
162	0x3dc1ec84	0.0946894
163	0x3d9068d0	0.070512414
164	0x3dda5651	0.10660995
165	0x3d8e114d	0.069368936
166	0x3daa967e	0.08329485
167	0x3d3b9c4d	0.045803357
168	0x3dd348c7	0.103166156
169	0x3e04ac65	0.12956388
170	0x3d52359f	0.05132067
171	0x3d32d997	0.04366454
172	0x3cce3103	0.025169855
173	0x3e0fee15	0.14055665
174	0xbe06a6d3	-0.13149576
175	0xbcc08c8e	-0.023504522
176	0x3e0a8baf	0.13529848
177	0x3d9eccc2	0.07753898
178	0x3ca80882	0.02051187
179	0xbd7ebfcd	-0.062194634
180	0xbd991587	-0.07474809
181	0x3d820cd1	0.06350101
182	0x3ba427e9	0.0050096405
183	0x3dcb5d4e	0.09929906
184	0x3c524ec9	0.012836167
185	0x3c14c41e	0.009079961
186	0x3c447288	0.011990197
187	0xbd6d26b6	-0.057898246
188	0x3e28e044	0.164918
189	0x3dc2212b	0.094789825
190	0x3d230b7a	0.039805867
191	0x3ea4e3b3	0.3220497
192	0x3d7c4897	0.061592665
193	0x3d964606	0.07337575
194	0xbbd57ff0	-0.0065154955
195	0x3d197e12	0.037473746
196	0x3e20bf39	0.15697946
197	0x3daffa97	0.08592718
198	0x3db83bdb	0.089957915
199	0x3d890c52	0.06691803
200	0x3ce13152	0.027489338
201	0x3d1f5c61	0.03890646
202	0x3e19f110	0.15033364
203	0x3c87a609	0.016558664
204	0xbe555854	-0.20834476
205	0xbe117bb2	-0.14207342
206	0xbdc92469	-0.09821398
207	0x3d36f204	0.044664398
208	0x3d257166	0.04039135
209	0x3d5da4dd	0.054112304
210	0x3d50be68	0.050962836
211	0x3d2ef151	0.042710606
212	0x3bb400f3	0.005493277
213	0x3cb6314b	0.022240302
214	0x3da36ca7	0.07979708
215	0x3c4d55f0	0.012532696
216	0x3bb94278	0.0056536756
217	0xbd91368a	-0.070904806
218	0x3db9ab84	0.09065917
219	0xbd314ba5	-0.04328503
220	0x3d5df595	0.054189283
221	0x39a2a125	0.0003101911
222	0xbc4b71fb	-0.012417312
223	0x3d17259d	0.036901105
224	0x3d380a50	0.04493171
225	0xbd833da1	-0.06408239
226	0x3c4a802c	0.01235966
227	0xbe878699	-0.26469877
228	0xbd41d7db	-0.047324996
229	0xbdb83ed7	-0.08996361
230	0x3d6506d7	0.055914726
231	0x3ce1092b	0.027470192
232	0x3d5b143a	0.053486086
233	0x3d406a45	0.046976347
234	0xbd1460db	-0.03622518
235	0xbdaf457e	-0.085581765
236	0x3d30a1d8	0.043123096
237	0xbeb58f08	-0.35460687
238	0x3df0612c	0.11737284
239	0x3cc39b51	0.023877772
240	0x3daae1d1	0.08343852
241	0x3ce4e479	0.027940976
242	0x3d7f4c3a	0.062328555
243	0xbdd33a8e	-0.10313903
244	0x3c13fa9a	0.009031916
245	0xbaf2e9c8	-0.0018532807
246	0x3dbb3b69	0.09142191
247	0x3db13a99	0.08653755
248	0xbc51a9e2	-0.012796851
249	0x3d0083bb	0.031375628
250	0x3c6b1348	0.014347859
251	0xbce73b4e	-0.02822652
252	0x3ce74d0c	0.028234981
253	0x3d16bfe8	0.03680411
254	0x3d9947ba	0.07484384
255	0xbccd66c4	-0.025073417

bias f4 [128]
0	0xbcaa5eb2	-0.020797107
1	0x3c974217	0.018464131
2	0x3c6e2048	0.014534064
3	0x3cc863af	0.024461595
4	0xb9f81dbe	-0.00047324406
5	0xbd1f08b2	-0.038826652
6	0x3c73be39	0.014876896
7	0xbbc4999d	-0.0059997574
8	0x3b8a8102	0.0042268047
9	0x3c789c77	0.015174023
10	0x3c56b4c2	0.013104619
11	0x3c15434d	0.009110284
12	0x3cb1b649	0.021693366
13	0x3c6e8388	0.014557727
14	0xbb6665c8	-0.0035155881
15	0x3c53a5a9	0.012917914
16	0x3c794248	0.015213557
17	0x3c86074e	0.016360905
18	0x3bd7f9c3	0.006591053
19	0x3c9e3daf	0.019316522
20	0x3c6f4d97	0.014605901
21	0x3c87d398	0.016580388
22	0x3cb4951c	0.022043757
23	0x3d278e6e	0.040907316
24	0xbd1f04b1	-0.038822833
25	0x3caa5420	0.020792067
26	0x3c7a7e90	0.015288964
27	0xbbf5b1ca	-0.0074980007
28	0xbd246414	-0.040134504
29	0x3c60950c	0.013707411
30	0x3c8e335e	0.017358478
31	0x3b524193	0.0032082542
32	0xbca63b00	-0.020291805
33	0x3d630565	0.055425067
34	0x3c991fd1	0.018691929
35	0x3c6e3f0b	0.014541398
36	0x3cc2dc3b	0.023786655
37	0x3c3c58a4	0.011495743
38	0xbbe4967e	-0.006975948
39	0x3d303692	0.043020792
40	0x3cc94e79	0.024573551
41	0xbd025f6a	-0.031829275
42	0x3c4f584a	0.012655327
43	0xbc512a21	-0.012766392
44	0x3d0dab36	0.034587108
45	0x38ab9547	8.1817205e-05
46	0xbc7abca6	-0.015303766
47	0x3c2b218d	0.010445011
48	0xbb665050	-0.0035143085
49	0x3ab363eb	0.0013686394
50	0xbcfe8ca2	-0.031072918
51	0x3c5a9c8f	0.013342991
52	0xbbbbfb25	-0.005736726
53	0x3c99b227	0.018761707
54	0xbcd35731	-0.025798412
55	0xbcd8c25e	-0.026459869
56	0xbbd1ae76	-0.006398971
57	0xbc76d6ca	-0.015065858
58	0x3c5bb201	0.013409139
59	0x3c85f84a	0.016353745
60	0xbd18b516	-0.037282072
61	0x3c94d186	0.018166315
62	0x3c5c4f52	0.013446646
63	0xbaf4ab1b	-0.0018666716
64	0xbd122603	-0.035680782
65	0x3c78a9fe	0.015177248
66	0xbc7acf70	-0.015308246
67	0xbcf87ba9	-0.030332403
68	0xbb015ab2	-0.0019737897
69	0xbc4290f5	-0.011875381
70	0x3be3e075	0.0069542476
71	0x3c917dfa	0.017760266
72	0xbbd48e2d	-0.0064866752
73	0x3ca6abdf	0.020345626
74	0x3cadb03d	0.021202201
75	0x3ce46930	0.027882189
76	0x395c772a	0.00021025227
77	0x3c89ff35	0.016845325
78	0x3c504227	0.012711084
79	0xbcb22133	-0.021744346
80	0xbcb1e54a	-0.021715779
81	0x3c45b8fc	0.0120680295
82	0x3ac1f809	0.0014798652
83	0xbadbb4c7	-0.001676225
84	0xbc7d5dd4	-0.015464265
85	0x3d049361	0.032367114
86	0xbc48cf46	-0.012256449
87	0xbc240bcb	-0.010012577
88	0xbb13c549	-0.002254801
89	0xbad7946f	-0.0016447435
90	0xbca57cea	-0.020201165
91	0xbd18f3c4	-0.037341848
92	0x3bf6caaf	0.007531486
93	0x3cc7518e	0.02433088
94	0x3c511ae6	0.012762761
95	0x3c67fe39	0.0141597325
96	0x3ca78213	0.020447766
97	0x3cb524b3	0.022112226
98	0x3c42cb2f	0.011889263
99	0x3ba23087	0.0049496326
100	0xbb1248b2	-0.0022321162
101	0xbc0ab257	-0.008465371
102	0xbd040ced	-0.03223889
103	0x3c827414	0.015924491
104	0x3d43c6ad	0.047796894
105	0x3c3c070a	0.011476288
106	0xbce9d700	-0.028544903
107	0x3c8ab83f	0.016933559
108	0x3c28a013	0.010292071
109	0x3c1e629d	0.009667066
110	0x3d4b8642	0.049688585
111	0x3aade07e	0.0013265756
112	0x3c360ad3	0.011110979
113	0xbcdef85a	-0.027218033
114	0x3c1a29b9	0.0094093615
115	0x3be68cb1	0.0070358147
116	0x3b0e07dd	0.0021672167
117	0xbd8724ec	-0.06598839
118	0xbb36e779	-0.0027908965
119	0x3ca66e46	0.020316254
120	0x3c18b520	0.009320527
121	0x3c4f00dd	0.012634483
122	0x3c953bb8	0.018216953
123	0xbce2dfb4	-0.02769456
124	0x3b8a1718	0.004214179
125	0x3c876329	0.016526775
126	0xbcda78c1	-0.026668908
127	0x3aae0b92	0.0013278595

weight f4 [1, 128]
0	0xbed3ff51	-0.41405728
1	0xbdf732a7	-0.12070208
2	0xbe1fdf9c	-0.15612644
3	0x3ec2c8cb	0.38043818
4	0x3de559ea	0.1119879
5	0xbe9b5114	-0.30335295
6	0x3e10ee53	0.14153413
7	0xbeb21fce	-0.3478989
8	0x3e705c4b	0.23472707
9	0x3d5c2a06	0.053751014
10	0xbe2ad810	-0.16683984
11	0x3d782361	0.060580615
12	0xbe57601c	-0.21032757
13	0xbe2303d7	-0.15919434
14	0xb89169ff	-6.933882e-05
15	0xbe3d79fe	-0.18503568
16	0xbe18a7d2	-0.14907768
17	0x3e29214f	0.16516612
18	0xbea18736	-0.3154847
19	0x3e425cae	0.18980667
20	0xbe1849a9	-0.14871849
21	0xbe25d422	-0.16194203
22	0x3ea21600	0.3165741
23	0xbe9a737d	-0.30166236
24	0xbe6aae1f	-0.22917984
25	0x3e410455	0.18849309
26	0x3e2fe497	0.17177044
27	0x3f0eb85b	0.55750054
28	0xbee2d930	-0.44306326
29	0x3e0c8200	0.13721466
30	0x3e21403c	0.1574716
31	0xbd260204	-0.040529266
32	0xbe65c481	-0.22438242
33	0xbe67cd02	-0.22636798
34	0x3e4d3e58	0.20043314
35	0x3e4e6168	0.20154345
36	0xbe048e40	-0.12944889
37	0x3e21c5e8	0.15798151
38	0xbdf27cb1	-0.11840189
39	0xbdefa6b4	-0.11701718
40	0xbe6fea3d	-0.23429199
41	0x3ebbfe3e	0.3671741
42	0x3e34693f	0.17618273
43	0xbe0a3bb4	-0.13499337
44	0x3e776bae	0.2416217
45	0x3d874b00	0.06606102
46	0x3e42d0b8	0.19024932
47	0x3ed4dc98	0.4157455
48	0xbd964018	-0.07336444
49	0x3dae7982	0.085192695
50	0xbea27022	-0.31726176
51	0xbea5150c	-0.3224262
52	0x3adb4aa8	0.0016730623
53	0xbe639a5f	-0.22226857
54	0xbe598b66	-0.21244583
55	0xbece3c85	-0.40280548
56	0x3df5f6b1	0.12009943
57	0xbe904d9e	-0.28184217
58	0x3e25835f	0.16163395
59	0xbeb62a07	-0.3557894
60	0x3eb84637	0.3599107
61	0x3e84bae6	0.25923842
62	0x3e8b5d5f	0.27219674
63	0xbbf1f6f2	-0.0073841745
64	0xbe518bfc	-0.20463556
65	0xbe4760ac	-0.19470471
66	0xbcae501c	-0.021278434
67	0x3edc6a05	0.43049636
68	0x39c80552	0.00038150937
69	0x3eba9c0d	0.36447182
70	0xbecde713	-0.40215358
71	0xbe583a90	-0.2111609
72	0x3cf907f5	0.030399302
73	0xbe1a9378	-0.15095317
74	0xbe77a8fb	-0.24185555
75	0xbe8f99dd	-0.28047076
76	0x39969657	0.0002872224
77	0xbe456bba	-0.19279376
78	0xbe093a88	-0.13401234
79	0xbe8276e2	-0.25481325
80	0xbe71569e	-0.23568198
81	0x3dd459a5	0.10368661
82	0xbd5cf45a	-0.05394397
83	0xbe38e03c	-0.18054289
84	0xbea47fc5	-0.3212873
85	0x3e92d9b5	0.28681722
86	0x3dfb141f	0.12259697
87	0xbec464ae	-0.38358063
88	0x3de3d16f	0.11123931
89	0xbe866b0c	-0.26253545
90	0xbe83857e	-0.25687784
91	0x3f05d6f0	0.52281094
92	0x3da2a7e3	0.07942178
93	0xbe88f519	-0.26749495
94	0x3e8bf694	0.27336562
95	0x3e7db75e	0.2477698
96	0xbe66d103	-0.22540669
97	0x3e1243bb	0.1428365
98	0x3e2525d6	0.16127715
99	0xbd6b06ea	-0.05737964
100	0xb96ecb0b	-0.00022773088
101	0x3ed27ebd	0.4111232
102	0x3ec82fa4	0.39098847
103	0x3e2404c3	0.16017441
104	0x3e1a6de3	0.15080981
105	0xbdd84d2a	-0.10561593
106	0xbeb76f9c	-0.3582734
107	0x3e1feef0	0.15618491
108	0xbe3c0a6a	-0.18363348
109	0x3eac2076	0.33618516
110	0xbe5f25a4	-0.21791703
111	0xbea6bd11	-0.3256612
112	0x3e176b20	0.14786959
113	0xbeba6861	-0.3640776
114	0xbddf9bea	-0.1091841
115	0xbd71d9a0	-0.059045434
116	0xbdb38fa3	-0.08767631
117	0x3ecd9294	0.40150893
118	0xbe32123c	-0.17389768
119	0x3e49be7b	0.19701569
120	0x3ecb63bb	0.39724526
121	0xbe81be9f	-0.25340745
122	0xbe7cb3f3	-0.2467802
123	0xbee20da9	-0.44151047
124	0xbd45fa6d	-0.048334528
125	0xbe0d0e99	-0.137751
126	0x3e944c72	0.28964573
127	0xbd1b6e6e	-0.03794711
