models/2547def2-23257-5503.pt (torch, 210077 bytes, 5 tensors)

weight f4 [128, 256]
00000000: b98c 7fbc cd3d 37ba 2787 fa3c f0bb 92bd
00000010: aa66 2d3d 5f70 c9bc 010f 293c f3fd 9e3c
00000020: 6ff2 2dbb e519 103d 223a 9a3c 15f8 35bc
00000030: 49d7 283d 5004 f53c be7e a4ba a14a 5bbd
00000040: 7372 023d 7ee3 183c 6efa ae3c 7ab8 233b
00000050: 000d d33c 2a81 44bd 8572 033c 3599 ad3c
00000060: bf35 a83c 865e 4bbc b8b1 b53c f435 0d3d
00000070: ec92 063d 3629 d23c e74a 45bd 7b25 b13c
00000080: 332d d8bb ab1c e9bc 29d5 b8bc 1709 a63c
00000090: 0a42 0c3c 3c6e e7b8 152c 0ebe da8d 0f3b
000000a0: dc7a f43c e2a6 a13c 519b ad3d f7b5 96bc
000000b0: 6b91 46bc 8802 623c d35a 4d3d 842d fabb
000000c0: 5b2d ef3c 364b 8d3c 3017 413d 1ed4 323d
000000d0: d43e fcbb 560d 2e3d 42ce cc3c db00 483c
000000e0: 2e83 023c 0bd9 113b 2a0c 86bc 5454 a23c
000000f0: 7b5a ac3c d350 d23c ae74 9c3c c737 a0bb
00000100: c841 ee3c 9fd8 a23c 76af cc3c dc11 65bd
00000110: 2d08 f03c 5783 723d de0f 973d dc03 383d
00000120: 9f3a a13c e754 353d 1edf dd3c 703d d93c
00000130: c91b dabd 8822 143d 2d8c a63c a01a c43c
00000140: e430 fcbc 1ac1 8bbc ee30 33bd 3ba7 153b
00000150: dfd5 f7bc 61e8 3c3d 0747 9aba f0de d23c
00000160: 505b e63c 04af c33c b48a 0abe 26bd 803c
00000170: 3032 2c3d b592 9ebd 26c0 913c 3a36 28bc
00000180: 65b4 5b3c 6129 093d 8651 523d d6f2 5e3b
00000190: df03 803d e835 b73c 4140 f13a 85f7 373d
000001a0: c5db cc3c 4a44 393c 1239 1e3d 26bd d13c
000001b0: 49e3 383d a047 00bd e75b bf3b 347b 343d
000001c0: dc2a 483c b386 7dbc 2483 ae3c ffa6 873c
000001d0: 33e5 94bc 2d24 063d d670 ed3c 2cd8 503d
000001e0: 4349 003d c179 703c b34f 883c 6e49 f03c
000001f0: 808c c8bd 1557 ec3c d4dc 01bc e3f5 eb3c
00000200: 22af fc3c f15d cb3c 5a7a bf3c f982 6dbc
00000210: 0041 5d3c eccb b83c 96f7 8d3c e6c9 aa3c
00000220: 1b03 8d3c 1a20 8c3c 235f 043d c6c4 163d
00000230: 17ea a83c 472b 0d3e f37f 853d d31d e6bc
00000240: a1c1 3f3d 6c6d a63d 9166 2dbd 0fad bd3c
00000250: 5308 833c 0e83 483c a2bf fb3b cea2 c13c
00000260: a382 f23b e413 8b3c 7d86 07bc c560 423d
00000270: b818 413d 29d1 93bd e852 853c b70e 28bb
00000280: d09f 543d b58b 3a3d e650 753c 653b 083d
00000290: ba3c da3b c804 4e3c f2f6 5d3d 5487 0c3a
000002a0: dc07 103d 6bcf 25bd 82ad 093d cfa7 ad3c
000002b0: d6dd 56bd 440d d13b 60d9 403d 5314 183d
000002c0: bd4c 873d 2985 083d f31d 1f3d da35 b43c
000002d0: ae08 b73c d948 69bc 7c97 0d3d 449f 4b3d
000002e0: f0b8 f53b 539f 863c 0239 a03b bb3e 95bd
000002f0: 8364 f23c dbea 2a3e 4a19 ca3c 30ec 95bd
00000300: 380f 0ebe 57b7 823c f4ef 873c 1fec 383d
00000310: 7c19 d63d d1ae 8dbb 80a6 2bbd fcda e43c
00000320: a4e8 303c 38bf a1b9 a6bd f03c 7703 3cbd
00000330: c34d 043d 7070 cb3c 13ea 26bd c2ef f23c
00000340: f448 bc3c 344f b3bc 65b8 453d 94e0 fa3b
00000350: b5fd 233d 449a 64bd c3ec cd3c a4f3 bdbd
00000360: 684e 9a3b b7e4 f43c de93 fb3c 8251 49bd
00000370: db09 623d 8e08 323d 959f 2cbc 107f c539
00000380: f0af 143d e8f5 2d3c 4fe1 153d 1b8d 3f3d
00000390: 423a 963d 203f 243d c8d7 d23c 4b19 623d
000003a0: ee88 073c ac1f 9e3c 0816 19be a708 b1ba
000003b0: 818c 06bd 2496 eebc 3771 393c 0870 d33c
000003c0: 1c55 ee3c d9e3 bc3c 7b1b d9bd 5c0c c83c
000003d0: dbd1 b23c 2192 91bd c0f1 493d 3d07 1b3d
000003e0: 8c70 cf3c 31e9 1f3c cc9c 163c 6449 bd3c
000003f0: e167 a33c 8722 bf3c 97ce b13c c354 e0bd
-0.015597516 -0.0006990105 0.030582024 -0.071647525 0.042334236 -0.024589716 0.010318519 0.019408202
-0.0026542207 0.035180945 0.018826548 -0.011106511 0.041220937 0.029909283 -0.0012549979 -0.05353797
0.03184743 0.009331582 0.021359649 0.0024981783 0.025763035 -0.047974743 0.008022909 0.021191219
0.02053344 -0.012412673 0.02217947 0.03447528 0.03285496 0.025654417 -0.048167136 0.021624317
-0.006597185 -0.028456053 -0.02256258 0.020268006 0.008560667 -0.00011035471 -0.13884003 0.0021904618
0.02984374 0.019732896 0.0847689 -0.018397314 -0.012119631 0.013794549 0.050135445 -0.0076348204
0.029196432 0.017247777 0.047141254 0.043659322 -0.0076979194 0.042493187 0.025000695 0.012207235
0.007965846 0.0022254612 -0.016363222 0.019815601 0.021039238 0.025673306 0.019098606 -0.0048894617
0.029084101 0.019878684 0.02498601 -0.055925235 0.029300774 0.059207287 0.07376073 0.044925556
0.019681273 0.044270422 0.02708393 0.026518553 -0.10649831 0.036165744 0.020330513 0.023938477
-0.030785032 -0.017059851 -0.043747835 0.0022835273 -0.030253349 0.04612005 -0.0011770435 0.02574107
0.028119713 0.023887165 -0.13529474 0.015715193 0.04204005 -0.07742826 0.017791819 -0.010266835
0.013409709 0.033486728 0.051347278 0.0034019253 0.06250738 0.022364572 0.001840599 0.044913787
0.025007138 0.011307785 0.038628645 0.025602888 0.04513863 -0.031318307 0.005839813 0.04406281
0.01221725 -0.015474009 0.021302767 0.016559122 -0.018175697 0.032749344 0.028984468 0.050987408
0.031319868 0.014677466 0.016639566 0.029331889 -0.09792423 0.028850118 -0.007926185 0.028803771
0.030845229 0.024825068 0.023373771 -0.014496558 0.013504267 0.022558175 0.017329972 0.020848226
0.017213395 0.017105151 0.032317292 0.03680875 0.020619435 0.1378604 0.06518545 -0.028090393
0.04681552 0.08126339 -0.042334143 0.02315381 0.01599518 0.012238277 0.0076827565 0.023637202
0.007400827 0.016977258 -0.008271811 0.047455568 0.047142714 -0.072176285 0.016274884 -0.0025643536
0.05191022 0.04554339 0.014972901 0.033259768 0.006660071 0.012574382 0.054190584 0.00053607416
0.035163745 -0.040481012 0.033612736 0.021198181 -0.052457653 0.006379755 0.047082305 0.037128758
0.066064335 0.033330116 0.03884692 0.021998335 0.022343006 -0.01423856 0.034568295 0.049712434
0.007498853 0.016433394 0.0048896084 -0.072873555 0.029588943 0.16691153 0.024670262 -0.0732044
-0.13872993 0.015956564 0.01659391 0.045147058 0.104540795 -0.0043238183 -0.041906834 0.027936451
0.010797653 -0.00030850782 0.029387306 -0.04590174 0.03230072 0.024833888 -0.040750574 0.029655341
0.022984006 -0.021888353 0.048271555 0.0076561663 0.040036876 -0.05581118 0.02513731 -0.092749864
0.004709054 0.029894216 0.030710157 -0.049149998 0.05518518 0.04346519 -0.010536094 0.00037669437
0.0363006 0.010617711 0.036591824 0.046765428 0.073353305 0.040099263 0.025737658 0.055199903
0.008272393 0.019302212 -0.1494981 -0.0013506607 -0.03284884 -0.029124327 0.011318496 0.025810257
0.029093318 0.023057865 -0.106009446 0.024419956 0.021828583 -0.0710795 0.049302816 0.0378487
0.025322221 0.009760187 0.009192657 0.023106284 0.019946994 0.023331894 0.021704955 -0.10953667

bias f4 [128]
00000000: b8aa cebc cc1f 57bd ea4e 06bd 1aa7 59bc
00000010: e67c 793c 7184 45bd 35cf a7bd 3b0e c6bc
00000020: e958 bdbc 2dee bebc 3892 2c3b 8a9a bcbc
00000030: d331 80bc 1d5a 4fbc 4a82 50bd 3b2f 983c
00000040: 633e 81bc 9877 9ebc 3ad4 a53b 1b1c 86ba
00000050: 65d4 c93c fada 21bc 9171 09bd e3b8 64bd
00000060: ce0d 88bd 545e aebc 2b47 ffbc b404 cb3c
00000070: 0163 a5bc 7ddb 273b 8f8a 53bd 5803 d2bc
00000080: 28bc 81bc 3ba2 f6bc 897a c0bb b223 8abc
00000090: 0909 92ba 9625 aabc ffa9 ab3b b35f 9a3d
000000a0: 3ede 3f3b 0243 133c 369c 4a3c 300b 80bc
000000b0: 433e 123d f7cd 97bc 80cf 88bc 5627 bcbd
000000c0: eb34 06bb 4380 21bd da6d acbc ccad 383c
000000d0: de39 1e3d bccc eb3b 9a6a ab3b ef37 a13d
000000e0: 465a 5dbb 8e4c 11bc 0e22 4bbc 6f84 b73c
000000f0: c78f 3cbc af8b a8bb 3538 b4bc 6252 9fbc
00000100: 6d2a 1c3c a563 b3bc 8d07 f3bb 3c66 453c
00000110: 7829 9cbc 0785 643c 95bb 4fbc 4616 36bd
00000120: 6c54 15bd a626 a9bc 0a29 a93d 8e8f 8f3b
00000130: e45f 97bc 6df6 08bb e9f7 c03b 2da5 bcbc
00000140: bb32 b8bb ac85 7c3b e0cb 31bd a154 28bd
00000150: df13 4f3c 73b5 6d3b 0cd0 5cbd cab9 b1bb
00000160: e717 1e3c 52e1 a5bc b6f7 8dbd f75b e5bc
00000170: 9857 e2bb c0c4 95bb a721 cf3b 2659 2d3d
00000180: eeb5 3c3c b447 bdbb 3ab3 bd3a ea89 9f3c
00000190: a8ba efbc cd57 48bd 59c1 adbd bb0a 923b
000001a0: 02c6 123c 6a93 3f3b 9356 92bc 384a 71bc
000001b0: 01cd a9bc c6d5 fdbc 0ba5 42bc ac9b 23bc
000001c0: 1b5e 383b b989 c1bc ec9c 223b e5a3 cabc
000001d0: 52df 9bbc acc2 8e3b 02d5 64bc 00ca 5fbd
000001e0: c983 83bc aa3a 0bbd dffb 83bc b18b 213c
000001f0: 97ef b5bc a1d9 98bc 0215 0bbc 7633 303c
-0.02522789 -0.05252056 -0.032790102 -0.013284469 0.015227532 -0.04822201 -0.081938185 -0.024176707
-0.023113685 -0.02330693 0.002633227 -0.023022909 -0.015648758 -0.012655762 -0.050905503 0.018577209
-0.015776819 -0.019344136 0.0050607 -0.0010231765 0.02463741 -0.009878868 -0.03355557 -0.055840384
-0.06643258 -0.021285214 -0.031161865 0.024782516 -0.02018881 0.0025613003 -0.05164581 -0.02563636
-0.01583679 -0.030106654 -0.0058739823 -0.016862724 -0.0011141609 -0.020769875 0.005238771 0.075377844
0.0029276754 0.008988144 0.012366345 -0.015630335 0.03570391 -0.018530829 -0.016700506 -0.0918719
-0.002047832 -0.03942896 -0.021048475 0.011271905 0.038629405 0.007196037 0.0052312138 0.078719966
-0.003377573 -0.00886835 -0.012398256 0.022402016 -0.011508889 -0.0051436047 -0.021999458 -0.019448463
0.0095315995 -0.0218981 -0.0074166716 0.0120483 -0.019062743 0.013947732 -0.012679 -0.044454835
-0.036457464 -0.020648312 0.08259781 0.0043811267 -0.018478341 -0.0020898834 0.005888928 -0.02302798
-0.005621282 0.0038531823 -0.04340732 -0.041096333 0.012639015 0.0036271482 -0.053909346 -0.005423759
0.009649253 -0.020249043 -0.06932013 -0.027997954 -0.0069074146 -0.0045705736 0.0063211503 0.042321347
0.011517985 -0.00577637 0.0014472969 0.019474942 -0.02926381 -0.04891186 -0.08484144 0.0044568456
0.008958342 0.0029232153 -0.017863547 -0.014727168 -0.020727636 -0.030985724 -0.01188017 -0.009985846
0.0028132263 -0.023625242 0.002481277 -0.024736354 -0.019027386 0.004356703 -0.013966801 -0.054636
-0.016054051 -0.033991493 -0.016111312 0.009859965 -0.022208972 -0.018658461 -0.008488895 0.010754457

weight f4 [128, 128]
00000000: 126c 5cbe 7671 0abb 4e4d 8fbc 1822 23bd
00000010: ba0a d2bb 2d1c 48bc 21f0 e2bb e140 97bd
00000020: a1a1 e9bd 281f 9abc d994 183e bed1 8fbd
00000030: 2a12 95bc ce3b 42bd e07e 05be 8921 c33d
00000040: 6d89 debd 1d8a 5dbb ead2 7dbd 20d9 993d
00000050: 00cc 983d 4cc0 e63d 5a16 2cbb 6630 94bd
00000060: 834e 42bc 06ff 95be 6551 14be 64f0 d7bc
00000070: 56f0 95be 4c99 503e 4698 fabc 6b4e ccbd
00000080: 9fa9 88bd b1e0 54bd f1e3 9e3d fcb2 7ebe
00000090: e13b 2f3d 3ca8 99bd f724 f4bc 131e 6f3b
000000a0: 7228 95bd 33e2 d9bd 62cd 4d3d 91bb a4bd
000000b0: b3c6 da3c 082d 58bd 754d fabd 2926 c6bc
000000c0: 2263 5e3d cb9a 9fbd f422 11be b776 1e3d
000000d0: 3349 0a3d 7817 97bd 4f6a a43d d7a5 ed3b
000000e0: 8f93 af3d 1e0b 913d 52fd 0dbe 820d 073e
000000f0: 6a26 debd bb61 8ebb 6efc f93b 7870 09be
00000100: ef67 913d 3971 d9bd 48db 9ebc 5c01 bdbd
00000110: 053b 3abe c259 d03d 6c5f 5dbd 4a4a 34bd
00000120: 117c 15be 22a0 4bbe a2c6 cb3b c3b8 a33d
00000130: c88e 69be 72e5 203d 29ba d73c 77fc edbd
00000140: 5328 b43d 3359 4abd 0dff 753d 09ed da3b
00000150: 5c21 b93d e329 b2bd 8351 52bd 4469 3cbc
00000160: 1b18 a6bc 63f1 cf3b e974 a0bc 2a44 debd
00000170: 1c9a ae3c 0393 c73d 0d40 8e3d 0d6a 213d
00000180: 6d29 003e b759 93bd 1de7 4d3e e936 8d3d
00000190: d7d1 97bd b001 7dbd 613c 68bb 7b29 87bd
000001a0: 65ae d83d 5ac1 86bd ba4c ffbd a537 24be
000001b0: 8b20 e5bd 0778 253d e420 673c 7854 be3d
000001c0: 0d0e 373c c678 3ebe a50d b23d 4f7a 8abe
000001d0: f55a d8bb 8434 cebd e81a 02be a384 f0bc
000001e0: 14e4 493d 01f9 60be 7229 8bbd ca04 8f3b
000001f0: 556d c63c a414 d13d ddee b03d 317f bdbd
00000200: 241b 973b 33a2 ffbc 3e53 533d e29a e8bd
00000210: 65ca 2c3d bd46 c23b 2326 9ebc 183f 5ebd
00000220: bf90 593d a684 ccbc a0fe 5a3d 2019 afba
00000230: 144e 08be 4dd4 803d 23fe f0bb 3357 c5bd
00000240: 3171 173e e11f bc3b 7e4d 923d b770 00be
00000250: 7e31 84bd 3268 2abe e903 1ebe c924 c6bd
00000260: a581 89bc d444 173e 70dc 89bc 8ddc 5d3d
00000270: 13ae 193e 013d a7be 834a 98bd f638 07bd
00000280: e7ee 0c3e 719a 0abd e1ed 54bd 6fdf 1dbd
00000290: 3820 e3bd 473c cd3d 544b be3d 49d8 4c3a
000002a0: be0a 1d3c a279 063e 9c74 1cbd cb19 263e
000002b0: b041 2e3d af80 b6bd 29b4 3f3d c9c2 89bc
000002c0: fe25 33bd 051e 44bc c798 893d b7ce 6ebc
000002d0: 731b 9c3b 28d3 9d3d 2cac 80bd 55ef 413a
000002e0: 11b9 debc 8be7 43bd 6528 c3bb a9a7 45bd
000002f0: a52c 083e 141d fc3c 6ad8 19be 12db 3d3d
00000300: 0d12 87bc 7e0b ef3c ae6b 43be 406b 023e
00000310: a150 3abd 2e52 a7bd 1777 f73d d051 b43d
00000320: 5026 233d cea1 ed3b 8e53 273b 8d77 c0bd
00000330: ea24 adbc 8870 25be 18bd ffbd 4bd6 a93d
00000340: 0c71 e3bd 6ea8 ce3d b5e6 36bd 9b07 5f3d
00000350: fb67 17bd cc74 d73d 4415 4bbe d95c ccbb
00000360: 534a a43d 82f0 aa3d efb5 b2bd 4844 323d
00000370: be62 02be e655 423d 97e6 c8bd afc0 6e3c
00000380: dff8 b9bd e21f 8ebe 596c adbe 6774 ffbd
00000390: 85f7 923d a499 7abd b156 e9bc 152e 56bd
000003a0: 67db 12be 8afe f03d faca 2a3e 3112 a13d
000003b0: 95b0 143e 5b09 563d 5265 243d 061e fbbd
000003c0: 145f 123e ff8c 0abb f320 a3bd 84aa f93d
000003d0: 968a b6bc a1e3 d8bc 9ebc eebb a3c0 cc3d
000003e0: b9be 35be 8db5 a23a 2463 d03d 9ef8 f7bc
000003f0: b6a8 25bc 10d7 04bd d8b4 40be f12f e63c
-0.215256 -0.0021124757 -0.017492916 -0.039827436 -0.00640997 -0.012213749 -0.0069255983 -0.073854215
-0.114077814 -0.018813685 0.14900531 -0.07022427 -0.018197138 -0.047420315 -0.1303668 0.09527881
-0.10866056 -0.0033804246 -0.06196872 0.075121164 0.07460785 0.112671465 -0.002625844 -0.07235794
-0.011859539 -0.2929613 -0.14484175 -0.026359744 -0.29284924 0.20370978 -0.030590188 -0.099758945
-0.06672978 -0.051972095 0.0775832 -0.24872965 0.042781714 -0.07502791 -0.029802782 0.0036486431
-0.07283105 -0.10638847 0.050244696 -0.08043588 0.026706075 -0.05277732 -0.12221805 -0.024188118
0.05429376 -0.07793196 -0.1417349 0.038687434 0.033761214 -0.07377523 0.08028089 0.0072524357
0.085730664 0.070821986 -0.13866165 0.13188747 -0.10847171 -0.0043451465 0.007628969 -0.1342181
0.07099902 -0.10617299 -0.01939167 -0.09228775 -0.18186577 0.1017337 -0.05404608 -0.04401616
-0.14598109 -0.19885305 0.0062187472 0.07994225 -0.22808373 0.039281316 0.026333885 -0.116204195
0.08796754 -0.049401473 0.06005769 0.006681089 0.09039566 -0.086993955 -0.051347267 -0.011499707
-0.020275166 0.006345914 -0.019586997 -0.10852845 0.02131372 0.09744837 0.069458105 0.03940778
0.12515803 -0.07194846 0.20107694 0.06895239 -0.07413071 -0.061769187 -0.003543638 -0.06599709
0.10580138 -0.06579848 -0.12465806 -0.16036852 -0.11187848 0.04039767 0.014106963 0.09293455
0.011172784 -0.18600759 0.08694009 -0.2704644 -0.00660264 -0.1006861 -0.12705576 -0.029360121
0.049289778 -0.21969987 -0.067950144 0.0043645846 0.024222055 0.10209015 0.086393096 -0.092527755
0.0046113897 -0.031205272 0.051593058 -0.113576666 0.042185206 0.005928843 -0.019305294 -0.05425939
0.053116556 -0.024965595 0.053465486 -0.0013358928 -0.13311034 0.06290493 -0.007354514 -0.096357726
0.14789273 0.005741105 0.07143687 -0.12542997 -0.064547524 -0.1664131 -0.15431179 -0.09674985
-0.016785452 0.1477235 -0.016828746 0.05416541 0.1500781 -0.3266373 -0.07436087 -0.033013307
0.13763009 -0.033838693 -0.05198467 -0.03854316 -0.110901296 0.100212626 0.092917114 0.00078142114
0.009585081 0.13132337 -0.038197145 0.16220777 0.042543113 -0.08911263 0.046802673 -0.016816514
-0.043737404 -0.011970048 0.06718593 -0.014575652 0.0047640144 0.077062905 -0.06282839 0.0007398029
-0.027187856 -0.04782824 -0.005955743 -0.048255596 0.1329828 0.030775584 -0.15023962 0.0463515
-0.0164881 0.029180285 -0.19084045 0.12736225 -0.04548705 -0.081699714 0.120832615 0.08804667
0.03983146 0.0072519546 0.002553198 -0.093978025 -0.021135766 -0.16156209 -0.12487239 0.08292826
-0.11105546 0.10090719 -0.044653613 0.054450613 -0.036964398 0.10520324 -0.19832331 -0.0062366542
0.08021989 0.083466545 -0.08726107 0.04352215 -0.1273298 0.0474452 -0.098096065 0.014572307
-0.090806715 -0.277587 -0.33871725 -0.12473374 0.07176117 -0.06118168 -0.02848372 -0.05229004
-0.14341508 0.117672995 0.16678992 0.07864798 0.14520486 0.052255016 0.04013569 -0.12261586
0.14294082 -0.002114117 -0.07965269 0.121907264 -0.02228288 -0.02647573 -0.0072856685 0.0999768
-0.17748536 0.0012413725 0.101751596 -0.030269917 -0.010111025 -0.032431662 -0.18818986 0.028099032

bias f4 [128]
00000000: dcd2 a63c ca9f c73c 0d57 3bbc 98ac d43b
00000010: f1a8 6b3d c348 a4bd e284 eebc 8664 743a
00000020: 684d b33c 2bc3 16bd 1a2a 433c ff78 e7bb
00000030: 880e 4c3c 6917 c03c 7bef 8e3c 0f95 e0bc
00000040: 5b91 97bc 2626 a13c 1101 183a aa40 69ba
00000050: f87c 7ebc b3b4 f9bc 8be0 a03c 3028 78bb
00000060: aa50 283c 362c 67bd ee91 fa3b 8c6f 173d
00000070: efb2 99bc e139 c03c 0b30 ddbc f8a3 033d
00000080: f1ce 8e3d e858 153c dde0 4d3d 8f7b 7abc
00000090: 42d7 6a3c 9592 003c fe84 d9bd 8082 fd3c
000000a0: 8668 493c f64f 3c3c bd2d 3d3c 9626 953a
000000b0: cace bb3c ee48 c93c ee17 95bc df61 923c
000000c0: 5db3 133d 6b27 e1bb 6803 10bd 33c0 89bc
000000d0: 1b17 d6bb f4ed d7bd a2c9 553c 20ba a5bd
000000e0: 86ad dcbd e721 e2bc 3e15 1e3c 1302 073c
000000f0: 0387 0e3d 2b43 863d 92df 8cbd 4d54 a53b
00000100: 3bff 8c3c a522 c03b ca72 e93c b58b febc
00000110: 4f07 8abc 78e2 163d 3576 a93c 36f0 913c
00000120: 902c 92bc 6d29 7cbc 7259 9fbc 5cfb 0fbc
00000130: 3981 e3bc f0f2 e1bc 2573 553d 012e b83c
00000140: f695 d93b 6c13 a73c 0e5a 293b 397f c63c
00000150: 621d c33c d221 65bc 52a0 ae3c be5d 7f3c
00000160: 734e 90bc dbe4 933b 7648 80bd ba17 a6bc
00000170: 1eb4 56bc f066 40bd b194 843c 3161 4c3d
00000180: 6acf aa3c 8105 663c b548 1d3d a26c 123d
00000190: 6331 893c 6e93 c9bd 0cf9 9d3c 7fad ee3c
000001a0: cf1a 86bc b938 07bc c6b6 85bd 7c32 dbbd
000001b0: cb26 33bd a518 093d 61ab 973c 070c b23c
000001c0: 05f3 8b3c 5541 4c3c af5c 9b3b 2950 0a3d
000001d0: f53d ed3c 023e 183c 78fa 113d c6fb c839
000001e0: edd7 d8bd 621d a1bb dbd7 323d 7cb7 073c
000001f0: 7b99 3c3d 7ef2 c4bc cff5 95bc eb5f 023d
0.020364217 0.024368186 -0.011434329 0.0064903013 0.057534162 -0.08021691 -0.029116098 0.00093228405
0.021887496 -0.03680722 0.011911893 -0.0070639844 0.012454636 0.023448663 0.017448178 -0.027414827
-0.018501928 0.01967151 0.0005798499 -0.00088978803 -0.015532725 -0.030481672 0.01963832 -0.003786575
0.010273138 -0.056438647 0.0076467907 0.036971614 -0.01876208 0.023465099 -0.027000448 0.032138795
0.06973065 0.009115435 0.050263274 -0.015288248 0.014333548 0.007847448 -0.10621069 0.030946016
0.012292987 0.011493674 0.011546549 0.0011379297 0.022925753 0.024570908 -0.018199887 0.017868934
0.036059726 -0.006871154 -0.0351595 -0.01681528 -0.006533516 -0.10543433 0.013048561 -0.08092141
-0.107752845 -0.027604057 0.009648619 0.008240241 0.034796726 0.0655578 -0.0687858 0.00504545
0.017211547 0.005863505 0.028497119 -0.031072477 -0.016849188 0.03683707 0.020686248 0.017814737
-0.017843515 -0.015390736 -0.01945183 -0.008787956 -0.02777158 -0.027581662 0.052111764 0.022482874
0.006640191 0.020395003 0.002584103 0.024230586 0.023817722 -0.013985114 0.021316681 0.015586315
-0.017615533 0.0045133657 -0.06263821 -0.020274986 -0.013104467 -0.04697317 0.016184183 0.049897376
0.020850856 0.014039398 0.038399417 0.03574813 0.016747182 -0.09842573 0.019283794 0.029135464
-0.016370205 -0.00825327 -0.06529002 -0.107029885 -0.043738168 0.03347077 0.018514337 0.02173425
0.017083654 0.012466748 0.0047412734 0.033767853 0.028960207 0.009292128 0.035639256 0.00038334558
-0.105880596 -0.004916833 0.043662887 0.008283492 0.046044808 -0.02404141 -0.018305687 0.031829756

weight f4 [1, 128]
00000000: e989 a1be 0e4b 653e 8019 e8be 5a3b ec3e
00000010: 74aa b83e 0667 483e 6742 60bf ecd3 b1be
00000020: ffbb e23e 72de 9a3e b274 edbe 17df 21bf
00000030: 2886 a53e ec65 c23e 4a40 083f 124d 023f
00000040: fb76 1cbf ae32 873e bcab 06bf d07c d93e
00000050: 1910 d8be e276 e9be f5ca 0d3f c2d5 bbbe
00000060: 3e64 f23e 5e0c d3be e284 363f 0356 1dbe
00000070: 33e3 aabe 1b7c 6e3e c2a3 50bf 6d4d 05bf
00000080: 94d1 8f3e 979b 92be 8341 0f3f 738c b6be
00000090: 5ef5 6abe b893 3c3f 3586 e2be 3364 47be
000000a0: 2f46 93be b264 79be 6a86 b33e 056e 89be
000000b0: f7c3 d03e dcf7 ca3e 81dc 083f 752a 02bf
000000c0: 1403 363f 0350 003f e190 50bf b54f 10bf
000000d0: 4ed8 593f c068 dfbe da3b a7be 02c0 0ebf
000000e0: 929f e6be 4768 44bf 04a0 cf3e e291 29be
000000f0: a9e1 c3be 1ced 943e f219 903e 331c 54be
00000100: 80d1 5e3f 1dc5 ea3e 3885 9ebe 756f 64bf
00000110: 35df dabe db41 24be 89a2 d6be b7ff c93e
00000120: 5ee8 0fbf 2ad4 58bf a362 ac3f d320 f8be
00000130: 5ae6 d03e 7f6d e5be 76bc e03e af5e c23e
00000140: 7f8b 543f abcc 023f 5931 053f d9d1 69be
00000150: fa72 c73e b5a4 053f a3aa d53e dc45 3fbe
00000160: c6d4 bcbe fcb8 a6be 3686 893e 149a 94be
00000170: 3755 97be af3a 1a3f 5529 b53e e303 8e3e
00000180: a118 c53e b596 56be ae24 e6be 2243 c5be
00000190: f226 863e e78f fdbe 01d7 1dbf 364c e6be
000001a0: a017 d7be 49d1 a0be b0e4 e1be c829 e4be
000001b0: 6b68 a2bf ab7f 87be 9a07 37be 435a 2fbe
000001c0: 907f 33be 0c96 343f 2b48 84be c4a4 23be
000001d0: adb5 543e 6761 34be 9180 cabe 0dd9 95be
000001e0: d7de e1be 44fb debe 2727 8f3e fcba 563f
000001f0: 4f25 143f 1c2c ffbe 50ea afbe 16b9 b8be
-0.3155053 0.22391912 -0.45331955 0.46139032 0.36067545 0.1957055 -0.8760132 -0.34731996
0.44284055 0.30247837 -0.46378094 -0.63231033 0.32328916 0.37968385 0.532231 0.5089885
-0.6111905 0.26405853 -0.52605796 0.42478037 -0.42199782 -0.45598513 0.5538781 -0.36686522
0.47342104 -0.41220373 0.71296513 -0.15364842 -0.33376464 0.2328953 -0.81499875 -0.5207127
0.28089583 -0.2863433 0.5595934 -0.3565403 -0.22945163 0.736629 -0.44243017 -0.19471817
-0.28764483 -0.24354818 0.35063487 -0.2684175 0.4077451 0.39642227 0.5346146 -0.50846034
0.71098447 0.5012209 -0.8147107 -0.56371623 0.8509568 -0.43634605 -0.3266285 -0.5576173
-0.45043617 -0.76721615 0.4055177 -0.16559556 -0.38258103 0.2908715 0.28144795 -0.20713882
0.8703842 0.4585351 -0.30961013 -0.8923257 -0.42748418 -0.16040747 -0.4192088 0.39452907
-0.5621394 -0.84698737 1.3467602 -0.48462543 0.40800744 -0.448101 0.43893784 0.37962863
0.83025354 0.5109355 0.52028424 -0.22833957 0.38954908 0.5220445 0.41731748 -0.18678993
-0.36881083 -0.32563007 0.26860207 -0.29023802 -0.295572 0.60245794 0.35383096 0.2773734
0.38495353 -0.20955928 -0.4494986 -0.3852778 0.26201588 -0.4952385 -0.61656195 -0.4498002
-0.42010212 -0.31409672 -0.44119787 -0.44563127 -1.2688116 -0.2646459 -0.17873994 -0.17124276
-0.1752913 0.70541453 -0.2583631 -0.15980822 0.20772429 -0.17615281 -0.39551213 -0.2926716
-0.44115326 -0.43551075 0.27959558 0.83879066 0.5786943 -0.4983834 -0.34358454 -0.3607871
